Agent_weights/checkpoint.pth (torch_old, 7470 bytes, 7 tensors)

input_layer.weight f4 [32, 8]
0	0x3f4de514	0.8042767
1	0x3bb69112	0.005571493
2	0x3e9855a5	0.29752842
3	0xbe84471c	-0.25835502
4	0xbf16aff6	-0.58862245
5	0xbed115ba	-0.4083689
6	0xbdf610eb	-0.120149456
7	0xbd038114	-0.03210552
8	0x3ede9db4	0.43479693
9	0x3e3dd272	0.1853731
10	0x3f4bd954	0.7962849
11	0xbeb09716	-0.3449027
12	0xbf313288	-0.6921773
13	0xbf403a2e	-0.75088775
14	0xbeb5e3a4	-0.3552524
15	0xbe2df0bf	-0.16986369
16	0x3f360e52	0.711156
17	0xbfabe162	-1.3428156
18	0x3f3efdd2	0.7460605
19	0xbf53a111	-0.8266764
20	0xbeed5096	-0.46350545
21	0xbe238cc9	-0.15971674
22	0x3e650479	0.22364987
23	0x3d9b9f15	0.07598702
24	0x3e88eacc	0.26741636
25	0xbf0ff036	-0.5622591
26	0x3e4c703d	0.1996469
27	0xbef1d3cf	-0.4723191
28	0xbec9d498	-0.3942001
29	0xbf1c88aa	-0.6114603
30	0x3eafb160	0.34315014
31	0x3e4870ca	0.19574276
32	0x3eaee4e2	0.34159
33	0x3e8047a6	0.25054663
34	0x3e3b9f62	0.18322518
35	0x3f3783ca	0.7168547
36	0xbe6ce78e	-0.23135206
37	0xbf27db68	-0.6556916
38	0xbf1899a1	-0.5960942
39	0xbea0517e	-0.31312174
40	0x3e4408fe	0.19144055
41	0xbd9915d3	-0.07474866
42	0x3e6defa4	0.23235947
43	0x3e4d1364	0.20026928
44	0x3e91f0f1	0.28504136
45	0x3f860744	1.0470967
46	0x3c9a685e	0.018848594
47	0xbe79aec8	-0.2438308
48	0xbda64fa3	-0.08120658
49	0x3ea07e56	0.31346387
50	0xbf0baf50	-0.5456438
51	0x3f7d2beb	0.9889514
52	0x3ef7258d	0.48270836
53	0x3f48742e	0.78302276
54	0xbeaf7b25	-0.3427364
55	0xbe87aa9e	-0.26497358
56	0xbe2056be	-0.1565809
57	0x3bddda67	0.0067704204
58	0x3e291881	0.16513254
59	0x3e285a91	0.16440798
60	0xbd0966fc	-0.03354548
61	0x3cfe072e	0.031009283
62	0x3db4d545	0.088297404
63	0xbe8de320	-0.27712345
64	0xbea7bd0d	-0.32761422
65	0xbf11c4a2	-0.5694066
66	0xbecbd981	-0.3981438
67	0xbe30e8db	-0.17276327
68	0x3ea3dd09	0.32004574
69	0x3f6a4a04	0.9151919
70	0x3e09b5be	0.13448235
71	0xbd5bcd80	-0.053662777
72	0x3ef7f26f	0.4842715
73	0x3c993792	0.018703256
74	0x3eced25f	0.40394875
75	0x3e5db980	0.21652794
76	0x3d78b3f4	0.06071849
77	0x3f5f0219	0.87112576
78	0xbbd94796	-0.006630848
79	0xbe8b31e6	-0.27186507
80	0x3f0fe74d	0.5621231
81	0xbf9bd7b5	-1.2175204
82	0x3e394bba	0.18095294
83	0xbf1721a3	-0.590357
84	0xbf411f41	-0.75438315
85	0xbe3ef619	-0.18648566
86	0x3e7da03a	0.24768153
87	0x3d64093f	0.05567288
88	0xbeaa4c7e	-0.33261484
89	0x3ca2c093	0.019867217
90	0xbf5c897a	-0.8614727
91	0xc0033ec6	-2.0507064
92	0x3f079743	0.5296518
93	0x3f03af61	0.5143948
94	0xbee5b6bb	-0.44865975
95	0xbf2045fd	-0.62606794
96	0xbedcbfc3	-0.43115053
97	0xbd1d6209	-0.03842357
98	0xbf046a1d	-0.51724416
99	0x3e998952	0.2998758
100	0xbdeb97ca	-0.11503561
101	0xbfa0ac5a	-1.2552598
102	0x3d93100c	0.07180795
103	0x3def5e7e	0.11687945
104	0x3e9ac5d2	0.3022905
105	0xbfd31ab4	-1.6492524
106	0x3f0b842c	0.54498553
107	0xbf32733c	-0.69707084
108	0xbe121fdb	-0.14269964
109	0x3e9a5b6b	0.3014787
110	0x3e3235ce	0.17403337
111	0x3ea686c5	0.32524696
112	0x3eaeb355	0.34121194
113	0xbf24b5d9	-0.6433998
114	0x3eda8c71	0.42685273
115	0xbf1c3d90	-0.61031437
116	0xbf03367a	-0.51255
117	0xbf3bd26d	-0.7336796
118	0x3b9baf9e	0.00475116
119	0x3e656d81	0.22405054
120	0x3ef57b7b	0.4794577
121	0xbf90f283	-1.1324009
122	0x3f5b5ba0	0.85686684
123	0xbf0c85aa	-0.54891455
124	0xbee4d4c9	-0.44693592
125	0xbe8501ba	-0.2597788
126	0x3d77b417	0.06047448
127	0x3d5e67ae	0.054298095
128	0x3df1e514	0.11811271
129	0xbf7fc948	-0.99916506
130	0xbf0e5802	-0.5560304
131	0xbf2ae838	-0.6676059
132	0xbdc95eeb	-0.09832557
133	0x3ee435f4	0.44572413
134	0x3eb053a3	0.3443881
135	0x3e5fb263	0.21845393
136	0xbf090c7f	-0.5353469
137	0x3e9fc65c	0.31206024
138	0x3fa924ef	1.3214396
139	0xbf916427	-1.1358689
140	0xbeea5453	-0.4576746
141	0x3f0712e7	0.5276322
142	0x3ed7d5ca	0.42155296
143	0x3e73103e	0.23736665
144	0xbf4a0e6b	-0.7892825
145	0xb99cba07	-0.0002989324
146	0xbe3013a5	-0.17194994
147	0x3e0c843a	0.13722315
148	0x3f253e4e	0.64548194
149	0x3f3c6ec9	0.73606545
150	0x3e380408	0.17970288
151	0xbd964afc	-0.07338521
152	0xbea21b61	-0.31661513
153	0x3ddbb980	0.10728741
154	0xbef9723f	-0.48719975
155	0xbda48d06	-0.080347106
156	0xbdec7026	-0.11544828
157	0xbf5d03d3	-0.8633396
158	0xbe08df5d	-0.13366456
159	0xbc469628	-0.012120761
160	0xbeca48a7	-0.39508554
161	0x3e08b130	0.13348842
162	0x3c82cb35	0.015966037
163	0x3e01eb00	0.12687302
164	0xbe4e4531	-0.20143582
165	0xbf60a036	-0.8774446
166	0xbeb1344d	-0.34610215
167	0xbcde9be3	-0.027173942
168	0x3e4ed916	0.20199999
169	0xbf1c3ccf	-0.61030287
170	0x3e74191d	0.23837705
171	0xbeca9d6b	-0.39573225
172	0x3e0f56ee	0.13998005
173	0x3f35fbd4	0.71087384
174	0x3de5ae17	0.11214846
175	0xbe656554	-0.22401935
176	0xbe250806	-0.16116342
177	0xbf0f1506	-0.55891454
178	0xbe5fdfe8	-0.21862757
179	0xbd06ea16	-0.032938085
180	0x3f1586c7	0.5840878
181	0x3f530b86	0.8243946
182	0xbe195903	-0.14975362
183	0x3e0a78b5	0.13522609
184	0xbb978690	-0.0046241954
185	0xbc0f8353	-0.0087593375
186	0x3eb912fb	0.36147293
187	0x3e449abb	0.1919965
188	0x3e660406	0.22462472
189	0x3f6efa3b	0.9335057
190	0x3ea1ce4b	0.31602702
191	0x3e6b810d	0.22998448
192	0x3f6efd0c	0.9335487
193	0xbfa34fa6	-1.2758682
194	0x3f7d634c	0.9897964
195	0xbe9172af	-0.2840781
196	0xbf247122	-0.64235127
197	0xbd825d2d	-0.06365428
198	0x3e3b4d65	0.18291242
199	0xbe00f1eb	-0.12592284
200	0x3ed1c875	0.4097325
201	0x3ed36974	0.41291392
202	0x3d0b3809	0.033988986
203	0xbfafe8ca	-1.3742917
204	0xbf0ba3ce	-0.5454682
205	0xbe8dd15a	-0.27698785
206	0x3eecc005	0.4624025
207	0x3f0e6860	0.55628014
208	0x3e5b727f	0.21430396
209	0x3c7f2472	0.015572654
210	0x3e87f559	0.26554373
211	0x3e0fffd4	0.14062434
212	0x3e90a50c	0.2825092
213	0x3f8061a6	1.00298
214	0x3e4a6834	0.19766313
215	0xbecd8d3c	-0.40146816
216	0x3e7ca641	0.24672796
217	0xbf189326	-0.5959953
218	0xbd6a4858	-0.0571979
219	0xbdc509a2	-0.09620978
220	0x3d6a3364	0.057177916
221	0x3f57bee7	0.8427567
222	0x3e50d388	0.20393193
223	0xbe5390f8	-0.2066077
224	0x3e3cf934	0.18454438
225	0xbe6ab5b2	-0.22920874
226	0x3e82ceef	0.25548503
227	0xbe958ed7	-0.2921054
228	0xbecb171c	-0.3966607
229	0xbf83b6cf	-1.0290164
230	0xbee47aee	-0.44625038
231	0x3e37cb0e	0.17948553
232	0xbdcbb620	-0.09946847
233	0xbe446bfd	-0.1918182
234	0x401955fd	2.3958733
235	0x3e907514	0.28214324
236	0xbf59b74b	-0.8504531
237	0xbdfc77db	-0.12327548
238	0x3f2564c4	0.6460688
239	0x3e91ab67	0.28451082
240	0xbe03cfa8	-0.12872183
241	0xbf21dce8	-0.632277
242	0xbf0b6cb0	-0.5446272
243	0xbf16cd10	-0.5890665
244	0x3e080e0d	0.1328661
245	0x3f5b7674	0.8572762
246	0x3e9a6ce7	0.3016121
247	0xbd255ef4	-0.040373757
248	0x3ecde54e	0.40214008
249	0x3e7e8bf9	0.24858083
250	0x3f4aa0fc	0.7915189
251	0x3e070d30	0.13188624
252	0x3eb5c39e	0.35500807
253	0x3f702c94	0.9381802
254	0xbc19bca2	-0.0093833525
255	0xbea160d7	-0.31519195

input_layer.bias f4 [32]
0	0x3e451c16	0.19248995
1	0x3ec9d671	0.39421418
2	0xbe9d1752	-0.30681854
3	0xbe91cd9d	-0.28477183
4	0x3e8e5024	0.27795517
5	0x3f1632bc	0.58671165
6	0x3ea8293a	0.32843953
7	0xbeb0a9f9	-0.3450468
8	0xbeb46776	-0.35235184
9	0x3e8855b9	0.266279
10	0xbe7a72c1	-0.24457838
11	0xbdcdd92a	-0.100511864
12	0xbe9186e0	-0.28423214
13	0x3e9bb929	0.30414703
14	0xbea7f41e	-0.32803434
15	0xbe76cf77	-0.24102579
16	0xbe828331	-0.25490716
17	0x3f2776ec	0.65415835
18	0xbeaf8ff8	-0.34289527
19	0xbee42ad2	-0.4456392
20	0xbebec7a7	-0.37261698
21	0xbeb87c22	-0.36032206
22	0xbeabe056	-0.33569592
23	0x3ee0ca62	0.43904406
24	0xbe366422	-0.17811635
25	0x3f334da4	0.70040345
26	0xbeef15cd	-0.4669632
27	0xbe5f745d	-0.21821733
28	0xbedd3bd6	-0.43209714
29	0x3df4b5d9	0.11948747
30	0xbeb45433	-0.3522049
31	0xbeeeb398	-0.46621394

hidden_layers.0.weight f4 [32, 32]
0	0x3f111ae0	0.56681633
1	0x3ed02e6c	0.40660417
2	0x3f0e81b9	0.5566669
3	0x3e953b69	0.2914689
4	0x3eafbe3b	0.34324822
5	0x3e9d13a4	0.30679047
6	0x3ea65173	0.32484016
7	0x3e08b3f5	0.13349898
8	0x3e32a9fc	0.17447656
9	0x3f532e87	0.8249287
10	0x3eb88001	0.3603516
11	0xbdaa2252	-0.08307327
12	0x3f282a92	0.6568996
13	0xbcd67b92	-0.02618197
14	0x3eef2411	0.46707204
15	0x3f199307	0.5998997
16	0x3eae6551	0.34061673
17	0xbe58b46b	-0.21162574
18	0x3e914ea3	0.28380308
19	0x3e6d900b	0.2319948
20	0x3ed3bfa6	0.41357154
21	0x3ec02a0c	0.3753208
22	0x3e82525c	0.2545346
23	0x3d9a21cf	0.0752598
24	0x3ef81c9e	0.48459333
25	0xbe5f8ed4	-0.21831828
26	0x3f295b48	0.6615491
27	0x3ef37b48	0.47554994
28	0x3ed41e00	0.41429138
29	0xbd50d56e	-0.050984792
30	0x3f1f8acf	0.6232118
31	0x3f44f00c	0.7692878
32	0x3ea97afb	0.3310164
33	0x3e025540	0.12727833
34	0xbef5053f	-0.47855565
35	0xbec358a0	-0.38153553
36	0xbfb1d263	-1.389233
37	0xbf05642d	-0.5210598
38	0xbfb98a58	-1.4495344
39	0x3a877321	0.0010333994
40	0xbe0928e9	-0.13394512
41	0xbf8c8aa8	-1.0979815
42	0xbde63efc	-0.11242482
43	0x3fab5472	1.3385146
44	0xbf875821	-1.057377
45	0x3c05023f	0.008118211
46	0xbdae7b09	-0.08519561
47	0x3da8756a	0.0822552
48	0xbf466c7d	-0.7750929
49	0x3f35a4bd	0.70954496
50	0xbe578a2b	-0.210488
51	0xbf4457d1	-0.766965
52	0x3ecf3d4b	0.4047645
53	0x3d5b4b35	0.05353852
54	0x3efd361f	0.49455354
55	0xbf05cc5c	-0.5226495
56	0xbebc1906	-0.3673784
57	0x3f71b1d3	0.94411963
58	0xbf1f8145	-0.62306625
59	0x3e4bd1fb	0.1990432
60	0xbe26ae6a	-0.16277471
61	0x3edaddb4	0.4274727
62	0xbf243cb0	-0.641551
63	0xbff379aa	-1.9021504
64	0xbd666f54	-0.056258515
65	0x3d9e521a	0.077305034
66	0xbeeed076	-0.46643418
67	0xbe6d170f	-0.23153327
68	0xbf8e126b	-1.1099371
69	0x3eaabba9	0.33346298
70	0xbe8e97fd	-0.27850333
71	0x3df2a557	0.11847942
72	0x3e988f53	0.29796848
73	0xbe461277	-0.19342981
74	0xbe17e3b7	-0.1483296
75	0x3f933afc	1.1502376
76	0xbf66efcc	-0.9020965
77	0x3f07f56c	0.5310886
78	0xbee1493d	-0.4400119
79	0x3d91adbe	0.07113217
80	0xbe2cf1a5	-0.16889055
81	0x3f382a57	0.71939605
82	0x3db3dbd6	0.08782165
83	0xbf25a11b	-0.6469895
84	0x3e01d757	0.12679802
85	0x3daeaeb9	0.085294195
86	0x3ecb1d88	0.39670968
87	0x3e1febb9	0.15617265
88	0xbe60eb7f	-0.21964835
89	0x3fad762e	1.355169
90	0xbc344162	-0.011001917
91	0x3f189efb	0.59617585
92	0xbedc2eac	-0.43004358
93	0x3eca6232	0.39528042
94	0xbe4f4e31	-0.20244671
95	0xbf50a261	-0.8149777
96	0x3ee87616	0.45402592
97	0x3efdf4f9	0.49600962
98	0x3f1156e6	0.5677322
99	0x3ee8b54f	0.45450827
100	0x3efcfb09	0.49410275
101	0x3f032575	0.5122903
102	0x3ea6a9c5	0.325514
103	0xbe1ce3d7	-0.15321289
104	0x3e753f35	0.23949893
105	0x3f0f5731	0.5599242
106	0x3f21dbd0	0.6322603
107	0xbe54ae67	-0.20769654
108	0x3edc9b49	0.43087223
109	0xbd845fb2	-0.06463565
110	0x3f067529	0.5252252
111	0x3f164a6a	0.58707297
112	0x3eee74b7	0.4657342
113	0xbe35fd50	-0.17772412
114	0x3ef403bb	0.47659096
115	0x3e0bf066	0.13665923
116	0x3f0d166f	0.55112356
117	0x3f48465b	0.78232354
118	0x3dd92208	0.10602194
119	0x3eb1ec8d	0.34750786
120	0x3f22674b	0.6343886
121	0xbe51d69c	-0.20492023
122	0x3f3e9a79	0.74454457
123	0x3e8e23e4	0.27761757
124	0x3ee37983	0.44428644
125	0xbe7f63b5	-0.24940379
126	0x3f10f7e0	0.5662823
127	0x3f5fc126	0.87404096
128	0x3e9029e1	0.2815695
129	0x3ed63723	0.4183894
130	0x3f13f4b2	0.5779525
131	0x3e8eb0f6	0.27869385
132	0x3e31f21c	0.17377514
133	0x3e989a49	0.2980521
134	0x3e05e2df	0.13074826
135	0x3d67fe0b	0.05663876
136	0x3eb89a0a	0.36055022
137	0x3f0c7293	0.54862326
138	0x3f12d817	0.57360977
139	0x3c55bb65	0.013045167
140	0x3e80ca5d	0.2515439
141	0x3e33ebba	0.17570391
142	0x3eb9a423	0.3625804
143	0x3ebabe39	0.36473253
144	0x3ef50577	0.47855732
145	0x3c3be290	0.011467591
146	0x3ec82c2c	0.390962
147	0x3eb09ebf	0.34496114
148	0x3f21e7d2	0.63244355
149	0x3f1423f3	0.57867354
150	0xbc13c12f	-0.0090182265
151	0x3e835558	0.2565105
152	0x3f3ae7c6	0.7300991
153	0xbeb1acc9	-0.34702137
154	0x3eef347d	0.46719733
155	0x3ea7a18a	0.32740432
156	0x3f193489	0.5984579
157	0xbe81a889	-0.25323895
158	0x3f11c9de	0.5694865
159	0x3f36655d	0.7124842
160	0x3ec4a01e	0.3840341
161	0x3f14d152	0.581319
162	0x3efb8c2d	0.49130383
163	0x3ea27b95	0.3173491
164	0x3f2b04be	0.6680411
165	0x3efe7ec0	0.49706078
166	0x3f01b3b7	0.5066485
167	0x3e1a8ea2	0.15093473
168	0x3e8800a2	0.26562983
169	0x3f2d6c28	0.6774316
170	0x3e92c331	0.28664544
171	0xbcf08637	-0.029360874
172	0x3ed43980	0.4145012
173	0x3d3f2a66	0.046671294
174	0x3f2d1a8b	0.67618626
175	0x3f05071c	0.51963973
176	0x3e447870	0.19186568
177	0xbe42e820	-0.19033861
178	0x3eae262d	0.340135
179	0x3ee73677	0.4515874
180	0x3f067c51	0.5253344
181	0x3f289fb4	0.6586869
182	0x3e7bfe4f	0.2460873
183	0x3e2f9f92	0.17150715
184	0x3ee23666	0.44182128
185	0xbe803935	-0.25043646
186	0x3f260138	0.6484561
187	0x3ed5a58e	0.4172787
188	0x3f3efccc	0.7460449
189	0xbe257ad8	-0.16160142
190	0x3ee729b9	0.4514902
191	0x3f82c8b9	1.0217506
192	0x3f112037	0.5668978
193	0x3ef42cf4	0.47690547
194	0x3f31c85f	0.6944637
195	0x3e474eba	0.19463626
196	0x3f03d75b	0.5150048
197	0x3e58e7bc	0.2118215
198	0x3edf155d	0.43570986
199	0x3d8e9085	0.06961159
200	0x3e5c97ed	0.2154233
201	0x3ef86a35	0.4851853
202	0x3ed480d9	0.41504553
203	0xbdd27889	-0.102768965
204	0x3f0c643c	0.54840446
205	0xbd9b2c86	-0.075768515
206	0x3ebca957	0.36847946
207	0x3f1c448f	0.6104211
208	0x3f08e52e	0.534747
209	0xbe5fe1b2	-0.2186344
210	0x3e6ac011	0.2292483
211	0x3eceb3e9	0.40371636
212	0x3e8d84c3	0.27640352
213	0x3ea7b000	0.32751465
214	0x3e411570	0.18855834
215	0x3e41f71e	0.18941924
216	0x3f2826ea	0.6568438
217	0xbe2c3fda	-0.16821232
218	0x3f2d914b	0.67799824
219	0x3eb20f02	0.34777075
220	0x3ec7b7f4	0.39007533
221	0xbe2429db	-0.16031592
222	0x3f209347	0.6272473
223	0x3f3accb7	0.7296862
224	0x3f00cc39	0.5031162
225	0x3ea33907	0.31879446
226	0x3f32652b	0.6968562
227	0x3eda4ebd	0.42638198
228	0x3e917b81	0.28414539
229	0x3e71e010	0.2362063
230	0x3e84a6fb	0.25908646
231	0xbdb56f45	-0.088591136
232	0x3e4e7fc0	0.2016592
233	0x3f49dbb7	0.78850883
234	0x3efde472	0.49588352
235	0xbd99681d	-0.07490561
236	0x3ef2a26f	0.47389552
237	0x3d45ff1f	0.048339006
238	0x3f00ea4e	0.5035752
239	0x3ebc4493	0.36771068
240	0x3f19747d	0.5994337
241	0x3d85bb34	0.06529847
242	0x3ebe846e	0.3721041
243	0x3ecd4155	0.40088907
244	0x3ee4866f	0.44633815
245	0x3ee2400d	0.44189492
246	0x3e844fcd	0.25842133
247	0x3ed1dc85	0.40988556
248	0x3f2043cf	0.6260347
249	0xbea09450	-0.31363153
250	0x3f46d9dd	0.77676183
251	0x3eca0fa4	0.39465058
252	0x3ed87afc	0.4228133
253	0xbeda1d71	-0.42600587
254	0x3ef59a2c	0.47969186
255	0x3f9386d8	1.1525526

hidden_layers.0.bias f4 [32]
0	0xbe277711	-0.16354014
1	0x3ee4deb5	0.44701162
2	0x3f2eee04	0.68331933
3	0xbeb12742	-0.34600264
4	0xbe635219	-0.22199287
5	0xbedfee07	-0.43736288
6	0xbe2ab4cc	-0.16670531
7	0xbe9f146a	-0.31070262
8	0x3e83005e	0.25586218
9	0x3e256c82	0.16154674
10	0x3e490787	0.19631778
11	0xbe3a59a4	-0.18198258
12	0xbe8273c7	-0.25478956
13	0x3f01070e	0.5040139
14	0x3f78fd4c	0.972615
15	0x3dfd2ca4	0.1236203
16	0x3f67016a	0.9023653
17	0xbe991e2d	-0.29905835
18	0x3f59fba8	0.8514962
19	0xbe1b0385	-0.15138061
20	0xbeb9383a	-0.3617571
21	0xbd3a4119	-0.04547224
22	0xbda2d0e1	-0.07949997
23	0x3eeb2793	0.4592863
24	0xbe799b76	-0.2437571
25	0xbe44babd	-0.1921186
26	0xbe706075	-0.23474295
27	0xbe2e2759	-0.17007197
28	0x3bd7ebad	0.006589374
29	0xbe6abb6c	-0.22923058
30	0xbcc2e740	-0.02379191
31	0xbe832b71	-0.2561908

value_output.weight f4 [1, 32]
0	0xbf387709	-0.72056633
1	0x40516539	3.2718031
2	0x400ebd4f	2.2303045
3	0xbf226520	-0.63435555
4	0xbf223c63	-0.6337339
5	0xbf2e3ca7	-0.680613
6	0xbf2cc196	-0.6748289
7	0xbf517f65	-0.81835014
8	0x3fb407e1	1.4064904
9	0xbdbf9223	-0.09354045
10	0x3d9a95cf	0.07548105
11	0xbed5510e	-0.41663402
12	0xbf33ea37	-0.7027926
13	0x3ffd3947	1.9783105
14	0x3fad5af9	1.3543388
15	0xbe935d38	-0.28782058
16	0x3fc6be65	1.5526854
17	0xbf24cc90	-0.6437464
18	0x3e2e556a	0.1702477
19	0xbf1d3215	-0.61404544
20	0xbf15a3f9	-0.5845333
21	0x3e00da68	0.12583315
22	0xbf166fa6	-0.5876411
23	0x3fa13643	1.2594684
24	0xbf22fe8b	-0.6366965
25	0x3bb45587	0.0055033597
26	0xbf25d3ba	-0.64776194
27	0x3deaf7fa	0.11473079
28	0x3f2a3774	0.66490865
29	0xbf1dd4a8	-0.6165261
30	0xbf3b2a53	-0.73111457
31	0xbf1976ff	-0.599472

advantage_output.weight f4 [4, 32]
0	0xbd6d8b2f	-0.057994064
1	0xbf3b9b7a	-0.73284113
2	0xbe43cd49	-0.19121279
3	0xbda9e108	-0.082948744
4	0xbe42413b	-0.18970196
5	0xbe8b10a3	-0.2716113
6	0xbde871a5	-0.11349801
7	0xbe67e65d	-0.2264647
8	0xbef2a3ca	-0.47390586
9	0xbfa78ccd	-1.3089844
10	0xbdf7e8c8	-0.121049464
11	0xbec13a55	-0.37739816
12	0xbd187fb1	-0.03723115
13	0xbf049ba8	-0.5180001
14	0x3f0504d0	0.5196047
15	0xbe469c46	-0.19395551
16	0x3e66f272	0.22553423
17	0xba9a08c9	-0.0011751886
18	0x3f26e416	0.6519178
19	0xbcc951e7	-0.024575187
20	0xbe102bbc	-0.14079183
21	0x3dcc6682	0.09980489
22	0x3ca707fe	0.020389553
23	0x3e9dfba1	0.3085604
24	0xbec2a84f	-0.38019034
25	0x3e445d3b	0.1917619
26	0xbdabce74	-0.08388987
27	0x3ba22634	0.004948402
28	0x3f42781b	0.75964516
29	0xbe933d32	-0.28757626
30	0x3d22eb0a	0.039774932
31	0xbe100e5a	-0.14067975
32	0x3dcaa034	0.098938376
33	0xbd3ffd65	-0.046872515
34	0xbf270d58	-0.65254736
35	0xbd988a28	-0.07448226
36	0xbdb37d90	-0.087641835
37	0x3d665647	0.056234624
38	0x3d0e8657	0.034796085
39	0xbe6cf943	-0.23141961
40	0xbea3265b	-0.318652
41	0xbf3fdbf1	-0.7494498
42	0x3f3025d7	0.6880774
43	0xbed524ab	-0.41629538
44	0x3e064ee6	0.13116035
45	0x3f297d74	0.6620705
46	0xbf430936	-0.7618593
47	0xbe0d36d4	-0.13790447
48	0xbeae21de	-0.34010214
49	0xbd970858	-0.07374638
50	0x3f94f17f	1.1636199
51	0xbe03a0b0	-0.12854266
52	0x3d85d542	0.06534816
53	0x3df8810c	0.12133989
54	0xbe079769	-0.13241352
55	0x3e2af54f	0.1669514
56	0xbdc70a4a	-0.09718759
57	0xbdc24d64	-0.09487417
58	0xbe1aa96d	-0.15103693
59	0xbc6195e0	-0.013768643
60	0xbd9b6ab1	-0.07588709
61	0x3e852de4	0.26011574
62	0x3d0ccd9a	0.034375764
63	0xbd83b585	-0.064311065
64	0x3e4115e4	0.18856007
65	0x3f09583c	0.5365026
66	0x3e9c8588	0.30570626
67	0x3e6e277a	0.23257247
68	0x3ebb914a	0.36634284
69	0x3dee5a24	0.11638287
70	0x3ce18ea7	0.027533842
71	0x3e1d31a2	0.15350965
72	0x3f903952	1.1267493
73	0x3fd0d8e8	1.6316195
74	0xbe594680	-0.212183
75	0x3f935a35	1.1511904
76	0x3ea04d5c	0.3130902
77	0x3f31057c	0.69148993
78	0xbf0d370f	-0.5516214
79	0xbf230074	-0.63672566
80	0xbf2b3fe4	-0.66894364
81	0x3e000137	0.12500463
82	0xbf9ff895	-1.2497736
83	0x3bb34a11	0.005471476
84	0x3dbb8e25	0.09157971
85	0x3e09e423	0.13465934
86	0x3e2243d3	0.15846185
87	0xbea37917	-0.31928322
88	0x3ea47fcc	0.3212875
89	0xbe1503a1	-0.14552166
90	0x3ead7d00	0.3388443
91	0x3ce8d3ca	0.028421301
92	0xbe6ecd7a	-0.2332057
93	0xbdc42c78	-0.09578794
94	0xbd3491b5	-0.04408427
95	0x3e60a21d	0.21936841
96	0x3e1c2582	0.15248683
97	0xbe8af1a3	-0.2713748
98	0xbd12d604	-0.035848632
99	0x3e1db003	0.15399174
100	0xbd3e649a	-0.04648266
101	0x3e16a3b9	0.14710893
102	0x3d8d0551	0.0688578
103	0x3ca1f156	0.019768398
104	0xbf21f2e8	-0.6326127
105	0xbf0f616f	-0.56008047
106	0xbf523fa7	-0.82128376
107	0xbeaf385a	-0.3422268
108	0x3e3f68e9	0.18692364
109	0xbfb61fca	-1.4228451
110	0x3f950587	1.1642312
111	0x3f707450	0.9392748
112	0x3f6c3400	0.92266846
113	0xbd72cb28	-0.059275776
114	0xbf3ce04e	-0.7377976
115	0x3e06c79c	0.13162082
116	0x3e28674f	0.16445659
117	0xbd4b526c	-0.04963915
118	0x3e7b98c8	0.2457
119	0xbe842779	-0.25811365
120	0x3ea32c44	0.3186971
121	0x3e0ce11e	0.1375775
122	0x3c9b11c3	0.018929368
123	0xbe057ac1	-0.13035108
124	0xbf27fc88	-0.6561971
125	0x3d640d52	0.055676766
126	0x3e5c8b8a	0.21537605
127	0x3d27a284	0.04092647

advantage_output.bias f4 [4]
0	0x3dd83d85	0.10558609
1	0xbd222ce1	-0.03959358
2	0xbf19b418	-0.60040426
3	0x3e80df7c	0.25170505
